…
==========================================================================================


==========================================================================================
                                    Loading model cnn
==========================================================================================
Summary is brokem with cnn
==========================================================================================
Layer (type:depth-idx)                   Output Shape              Param #
==========================================================================================
├─Conv2d: 1-1                            [-1, 16, 24, 24]          416
├─ReLU: 1-2                              [-1, 16, 24, 24]          --
├─MaxPool2d: 1-3                         [-1, 16, 12, 12]          --
├─Conv2d: 1-4                            [-1, 32, 8, 8]            12,832
├─ReLU: 1-5                              [-1, 32, 8, 8]            --
├─MaxPool2d: 1-6                         [-1, 32, 4, 4]            --
├─Linear: 1-7                            [-1, 10]                  5,130
==========================================================================================
Total params: 18,378
Trainable params: 18,378
Non-trainable params: 0
Total mult-adds (M): 1.05
==========================================================================================
Input size (MB): 0.00
Forward/backward pass size (MB): 0.09
Params size (MB): 0.07
Estimated Total Size (MB): 0.16
==========================================================================================
…
